lenet5_mnist.pth (torch_old, 248538 bytes, 10 tensors)

0.weight f4 [6, 1, 5, 5]
0	0x3e892664	0.26787102
1	0x3df5fdb0	0.12011278
2	0x3e51c121	0.20483829
3	0xbea1e880	-0.31622696
4	0xbe8f9d65	-0.2804977
5	0x3e9623e3	0.29324254
6	0x3ebaaa0b	0.36457857
7	0xbd2d7907	-0.04235175
8	0xbe791d4d	-0.24327584
9	0xbe4120e2	-0.188602
10	0x3ece4b6a	0.4029191
11	0x3ed44c1e	0.41464323
12	0xbd1e0224	-0.03857626
13	0xbea80d53	-0.32822666
14	0xbe7a156f	-0.24422239
15	0x3e87817f	0.26465985
16	0x3e5174c3	0.20454697
17	0x3e00f870	0.12594771
18	0xbdf6b517	-0.12046259
19	0xbe08918a	-0.13336769
20	0x3eb41c56	0.3517787
21	0x3ea6f3b8	0.32607818
22	0xbc4473e2	-0.011990519
23	0x3e03f37b	0.12885849
24	0xbdc73465	-0.0972679
25	0x3d934b73	0.07192125
26	0xbe83b979	-0.25727442
27	0xbea80c4f	-0.3282189
28	0xbe5cb333	-0.21552734
29	0xbe1eae51	-0.15496184
30	0xbe7b70f0	-0.24554801
31	0xbeb4f967	-0.3534653
32	0xbe8af2f8	-0.27138495
33	0xbcd08cd1	-0.025457771
34	0x3da02f05	0.07821468
35	0xbbc8dc1e	-0.0061297556
36	0x3dad6a78	0.08467573
37	0x3d0eb85a	0.03484378
38	0x3eb702ff	0.35744473
39	0x3ebe80ce	0.37207645
40	0x3e50608f	0.20349334
41	0x3eb1100e	0.3458256
42	0x3ed46c12	0.414887
43	0x3ea725e6	0.32646102
44	0x3e27e5c5	0.16396244
45	0x3dac5974	0.08415499
46	0x3ea54d67	0.32285616
47	0x3e2f5994	0.17124015
48	0x3dab9ba7	0.08379298
49	0xbe19dd28	-0.1502577
50	0xbd4a3cca	-0.04937438
51	0x3dcdf7a7	0.100570016
52	0xbc4fec74	-0.012690652
53	0xbd7b57a5	-0.06136288
54	0xbe34a57f	-0.17641257
55	0xbe07a5c1	-0.13246824
56	0x3d66cb0a	0.056345977
57	0x3e14036d	0.14454432
58	0x3de92f53	0.113859795
59	0xbdd9f16e	-0.10641752
60	0xbe6922e9	-0.22767223
61	0x3e8df1f3	0.27723655
62	0x3ed6eda1	0.4197817
63	0x3eee41e5	0.4653465
64	0x3dcc3daa	0.09972699
65	0x3e1eef81	0.15521051
66	0x3ef46ac7	0.47737715
67	0x3f209ce0	0.6273937
68	0x3eb99cb7	0.36252376
69	0x3e872e5e	0.26402563
70	0x3d8c33f0	0.06845844
71	0x3dbcd2f4	0.092199236
72	0x3ebfe09f	0.3747606
73	0x3db37782	0.08763029
74	0x3d3b452e	0.04572027
75	0x3e4b798c	0.19870585
76	0x3eb8a9f2	0.36067158
77	0x3e8b0917	0.27155373
78	0x3db48140	0.08813715
79	0x3e6fc372	0.234144
80	0x3dbf196e	0.09331022
81	0x3e17edf8	0.14836872
82	0xbc230c9f	-0.00995174
83	0x3e929e20	0.28636265
84	0x3e82ae26	0.2552349
85	0xbe218a09	-0.15775312
86	0x3d8dcf72	0.06924333
87	0xbe12bf72	-0.14330843
88	0xbdffc3f0	-0.12488544
89	0xbcf1940a	-0.029489536
90	0xbe194885	-0.1496907
91	0x3c789676	0.015172591
92	0xbc0cc37c	-0.008591529
93	0xbe0d1c9f	-0.1378045
94	0xbe40a1cb	-0.18811719
95	0xbe260dd8	-0.16216218
96	0x3d73746f	0.05943721
97	0xbe4fffba	-0.20312396
98	0xbe094c2d	-0.13407965
99	0x3c95be62	0.018279258
100	0x3d93b2ed	0.07211862
101	0xbe24c802	-0.16091922
102	0xbe73c7c1	-0.23806669
103	0xbe31ce14	-0.17363769
104	0xbe1554be	-0.14583108
105	0xbdb9fba3	-0.09081199
106	0xbd9cd6d1	-0.076581605
107	0xbe8b622a	-0.2722333
108	0xbe2d9c65	-0.16954191
109	0xbd03e567	-0.032201197
110	0xbc103d7a	-0.00880372
111	0xbdecd8c2	-0.11564781
112	0xbe233802	-0.15939334
113	0xbdced026	-0.10098295
114	0xbd669296	-0.05629214
115	0x3e9d5789	0.30730847
116	0x3d5a3b0e	0.053278975
117	0x3ce889f1	0.028386088
118	0x3ddd2fd7	0.1080014
119	0x3da326df	0.079663984
120	0x3e5f60b2	0.2181423
121	0x3ec313b1	0.3810096
122	0x3e967c46	0.29391688
123	0x3eaa6476	0.3327977
124	0x3d457a26	0.048212193
125	0x3e82f2af	0.25575778
126	0x3d38dc6d	0.04513209
127	0xbd774b35	-0.060374457
128	0xbe101670	-0.14071059
129	0xbeb46ec4	-0.35240757
130	0x3e9feb1a	0.31234056
131	0x3ea55a1c	0.3229531
132	0x3ed6efb7	0.41979763
133	0x3e9c7bc2	0.3056317
134	0x3cfe4993	0.031040942
135	0x3e05b413	0.13056974
136	0x3ed1f550	0.4100747
137	0x3e7cc758	0.24685419
138	0x3e7dca1a	0.24784127
139	0x3e3a2c86	0.18181047
140	0xbe8f05e0	-0.2793417
141	0xbd268d4e	-0.040662102
142	0x3e7d07fa	0.24710074
143	0xbcac9a01	-0.021069529
144	0x3e96e5fd	0.29472342
145	0xbe8a508d	-0.2701458
146	0xbeba5e8e	-0.36400265
147	0xbe1221ef	-0.14270757
148	0x3d80d6e7	0.06290989
149	0xbd770db9	-0.06031582

0.bias f4 [6]
0	0xbe6d3783	-0.23165707
1	0x3cabd9da	0.020977903
2	0x3c845db7	0.016157968
3	0x3d1106a8	0.03540674
4	0x3e4b2074	0.19836599
5	0xbd9cb17f	-0.07651042

3.weight f4 [16, 6, 5, 5]
0	0xbd9d2458	-0.07672948
1	0x3c287798	0.01028242
2	0x3d027794	0.03185232
3	0x3d785009	0.060623202
4	0x3dae199f	0.085009806
5	0xbd846c22	-0.06465937
6	0xba8d067c	-0.0010759379
7	0xbdb31204	-0.087436706
8	0x3d507767	0.05089512
9	0x3dd4cf98	0.10391158
10	0xbc6dc2e5	-0.0145117985
11	0x3c90e986	0.017689478
12	0x3d045f8e	0.03231769
13	0x3da18df0	0.078884006
14	0x3d495b40	0.04915929
15	0x3cbd47ad	0.023105467
16	0xbd1945a3	-0.037419926
17	0xbc01c3e9	-0.007920244
18	0xbca7a642	-0.02046502
19	0xb8d72b7d	-0.00010260099
20	0xbd84986c	-0.06474385
21	0xbd050daf	-0.032483753
22	0xbcb42e8e	-0.021994855
23	0x3d0a5ca3	0.03377975
24	0x3d1e76f2	0.038687654
25	0xbc0c44f8	-0.008561365
26	0xbd506114	-0.05087383
27	0x3c4c5219	0.0124707455
28	0x3cc9043d	0.024538154
29	0x3c286d5d	0.0102799805
30	0xbc2add83	-0.010428789
31	0x3d592faa	0.05302397
32	0x3d9165d4	0.070995
33	0x3d0784a3	0.033085477
34	0xbdaf92b0	-0.085729
35	0xbcfaaab8	-0.030598983
36	0x3d10801a	0.035278417
37	0x3d1c12fc	0.038104042
38	0x3c972d68	0.018454269
39	0xbd56bbe3	-0.052425276
40	0xbc5c6874	-0.013452638
41	0x3ced1d46	0.028944623
42	0xbd190ce6	-0.037365817
43	0xbd099595	-0.03358992
44	0xbd9a515b	-0.075350486
45	0x3bd5ba71	0.0065224697
46	0xbcc5a78f	-0.02412775
47	0x3ce256dd	0.02762931
48	0xbd1d0cc7	-0.038342264
49	0xbd854d6f	-0.0650891
50	0xbd721b16	-0.059107862
51	0xbd87f8f7	-0.06639283
52	0xbb991e31	-0.0046727885
53	0x3d81968a	0.06327541
54	0xbd908465	-0.07056502
55	0xbd786b80	-0.060649395
56	0x3d8b51fa	0.06802745
57	0x3dc4a129	0.09601051
58	0x3df38000	0.118896484
59	0xbd9c7038	-0.076385915
60	0xb9d9dcdc	-0.00041554018
61	0x3d626cff	0.055279728
62	0x3dcf2054	0.10113588
63	0xbd82fafb	-0.06395527
64	0xbe2ac56a	-0.1667687
65	0xbd4043ce	-0.046939664
66	0xbcf96add	-0.030446464
67	0x3c87facf	0.016599087
68	0xbd80b574	-0.062846094
69	0xbdd95375	-0.10611621
70	0xbdb9f91c	-0.09080717
71	0xbd68a2ff	-0.05679607
72	0xbd7f457d	-0.06232213
73	0x3b268a16	0.0025411895
74	0xbd774a85	-0.0603738
75	0x3d811833	0.06303444
76	0xbb53f853	-0.0032344058
77	0x3d3990d1	0.045304123
78	0x3cd26f9b	0.025687983
79	0x3cab1630	0.020884603
80	0x3d61eeab	0.055159252
81	0x3d74e8e0	0.0597924
82	0xbccecb70	-0.025243491
83	0x3d02444e	0.03180342
84	0xbd2c4282	-0.042055614
85	0xbd90b076	-0.07064907
86	0x3d7c7ac4	0.061640516
87	0x3d6f4dee	0.05842393
88	0xbd52942b	-0.051410835
89	0xbd8f2e62	-0.06991269
90	0x3d5823ef	0.052768644
91	0x3b7f363f	0.0038942245
92	0x3d149c5d	0.036281932
93	0xbd975447	-0.073891215
94	0xba160ef2	-0.0005724273
95	0xbd3cb379	-0.046069596
96	0xbcea0ec8	-0.028571501
97	0xbd3579c0	-0.044305563
98	0xbd0d3151	-0.03447086
99	0xbc6cdc3c	-0.014456805
100	0xbd6453a4	-0.05574383
101	0xbd15df01	-0.036589626
102	0x3cc51843	0.02405942
103	0xbca37eb5	-0.01995788
104	0xbd85d342	-0.06534435
105	0x3d0fcdea	0.035108484
106	0xbd0be203	-0.03415109
107	0x3c83c344	0.01608432
108	0xbc875368	-0.016519263
109	0xbd7ffec9	-0.06249884
110	0x3a1019a9	0.0005496988
111	0x3d506985	0.05088188
112	0x3c8e2a31	0.017354103
113	0xbd112063	-0.035431277
114	0xbc9b698f	-0.018971233
115	0x3d04537b	0.032306176
116	0xbd393d82	-0.045224674
117	0xbd00cf0b	-0.03144745
118	0xbd38660e	-0.045019202
119	0x3ccd0c85	0.025030384
120	0x3d499603	0.049215328
121	0xbd76aa0e	-0.06022077
122	0xbd96b94d	-0.07359562
123	0xbccabdc3	-0.024748689
124	0x3bd62d60	0.006536171
125	0xbd9b50ca	-0.07583769
126	0xbd3cb909	-0.0460749
127	0xbd187eda	-0.03723035
128	0x3d0f5aed	0.034998823
129	0x3cd00196	0.025391381
130	0x3b2cf9ae	0.0026393938
131	0xbd1bc7f7	-0.0380325
132	0x3cdd1f48	0.026992455
133	0xbd2eeadd	-0.04270445
134	0x3cea83ce	0.028627302
135	0xbd38febf	-0.04516482
136	0xbcfdecaf	-0.030996649
137	0x3d44c0cb	0.048035424
138	0x3d4ae0cd	0.049530793
139	0x3b1b1d0d	0.0023668439
140	0xbc8729c5	-0.01649941
141	0x3d4febcb	0.05076198
142	0xbd0283b0	-0.03186387
143	0xbc3ec603	-0.011643889
144	0x3b439060	0.0029840693
145	0xbbea02c6	-0.007141444
146	0xbd23959e	-0.039937608
147	0x3d03fea3	0.032225262
148	0xbce5c683	-0.02804876
149	0xbd93a114	-0.072084576
150	0xbaa89b5c	-0.0012863684
151	0xbd527feb	-0.051391523
152	0xbc892b62	-0.01674432
153	0xbd98ed7d	-0.07467172
154	0xbd43d915	-0.047814447
155	0xbd173d83	-0.036923897
156	0xbd2d570f	-0.042319354
157	0xbdc4de0e	-0.09612666
158	0xbbde53b6	-0.0067848815
159	0x3db31299	0.087437816
160	0xbdedf6bc	-0.116193265
161	0xbe1cd8f5	-0.15317138
162	0xbdc72056	-0.097229645
163	0x3ce0a0c0	0.027420402
164	0x3d71679d	0.058936704
165	0xbd95f8f1	-0.073228724
166	0xbdd36523	-0.10322025
167	0x3c33e8c1	0.010980786
168	0x3e329aae	0.17441818
169	0xbcc69267	-0.024239732
170	0xbd869459	-0.06571264
171	0x3aec9d34	0.0018052221
172	0x3e02b731	0.12765194
173	0x3d755c24	0.059902325
174	0xbdd36b73	-0.10323229
175	0x3d63ea5d	0.055643428
176	0xbc6bb2aa	-0.014385859
177	0xbcca1201	-0.024666788
178	0x3c29a896	0.010355135
179	0x3d505d05	0.05086996
180	0xbdcd567e	-0.10026263
181	0xbe1f89b2	-0.1557987
182	0xbd06834d	-0.032840062
183	0x3e005bc1	0.12535001
184	0x3dca3a40	0.098743916
185	0xbe57aa2c	-0.21061009
186	0x3d6533aa	0.055957474
187	0x3e8d7097	0.27624962
188	0x3e2981ef	0.16553472
189	0xbe53f306	-0.20698175
190	0x3de90d04	0.11379436
191	0x3eb90078	0.3613317
192	0x3e939478	0.2882421
193	0xbe1ccc60	-0.15312338
194	0xbe69c4d6	-0.22828993
195	0x3e548a9b	0.20755999
196	0x3d8015ab	0.06254133
197	0xbe689bc2	-0.22715667
198	0xbe0f6336	-0.1400269
199	0x3d895c9f	0.06707119
200	0x3d63a8fe	0.055581085
201	0x3a94bd3c	0.00113479
202	0xbd968250	-0.07349074
203	0xbe0220bc	-0.127078
204	0xbd0fc55b	-0.035100322
205	0xbd30469d	-0.043036092
206	0xbe6be5d7	-0.23036896
207	0xbd2464b0	-0.040135086
208	0x3e1f47ad	0.15554686
209	0x3d989390	0.0745002
210	0xbe2e80b4	-0.17041284
211	0xbbd7fe6e	-0.0065916097
212	0x3e67ecf1	0.2264898
213	0x3e4b968d	0.1988165
214	0xbd40d726	-0.04708018
215	0x3db3f9f8	0.08787912
216	0x3e9b5366	0.30337065
217	0x3e825d8f	0.25462005
218	0xbc4739e2	-0.012159796
219	0xbeafad72	-0.34312016
220	0x3e3e2397	0.18568264
221	0x3db3aa95	0.0877277
222	0xbe55215f	-0.20813511
223	0xbe989295	-0.29799333
224	0xbe3d946e	-0.18513653
225	0xbc8fd63d	-0.017558211
226	0x3c02040d	0.007935536
227	0xbde83de3	-0.11339929
228	0xbd9a5856	-0.0753638
229	0xbde38ad9	-0.111104675
230	0xbc18be4f	-0.009322717
231	0x3dc1548f	0.094399564
232	0xbc45a5d5	-0.012063463
233	0x3d4174fb	0.047230702
234	0xbd2a0ee0	-0.041518092
235	0x3d8a00e9	0.06738455
236	0x3cf2e76e	0.02965137
237	0xbce530f1	-0.027977439
238	0x3b3c1f18	0.0028705057
239	0xbd061fb2	-0.03274507
240	0xbded2fd9	-0.11581392
241	0xbdad4fb2	-0.08462466
242	0xbd12817f	-0.03576803
243	0x3d1cd8b2	0.038292594
244	0xbd30ebd5	-0.043193657
245	0xbd31507c	-0.043289647
246	0x3d8439b9	0.06456322
247	0x3dbad8e1	0.091233976
248	0xbd01fd1c	-0.031735525
249	0x3b56b86b	0.003276373
250	0xbd06c344	-0.032901064
251	0xbba68bf4	-0.0050826017
252	0xbcdd3ebe	-0.027007457
253	0x3d4bb9d0	0.04973775
254	0x3d899a50	0.06718886
255	0xbaf0abf2	-0.001836179

3.bias f4 [16]
0	0x3d5f9b92	0.054591723
1	0xbde33ee4	-0.1109598
2	0xbcaad2a4	-0.020852394
3	0xbd2aee8c	-0.041731402
4	0xbd17e926	-0.037087582
5	0xbc0476e8	-0.00808499
6	0xbdf2ff1c	-0.118650645
7	0xbd60b3ff	-0.054859158
8	0xbc8c8882	-0.017154936
9	0xbddb9e91	-0.107236035
10	0xbdc32385	-0.09528259
11	0xbd16e33c	-0.0368378
12	0x3c3db04f	0.01157768
13	0xbd90c4af	-0.070687644
14	0xbd3c6704	-0.04599668
15	0xbd5b9012	-0.053604193

7.weight f4 [120, 400]
0	0x3ca3719b	0.019951632
1	0xbd0da069	-0.034576807
2	0x3c0a1d23	0.008429798
3	0xbcf2363a	-0.029566873
4	0x3c52b388	0.012860186
5	0x3d022340	0.0317719
6	0xbba3d471	-0.00499969
7	0x3d0999e3	0.033594023
8	0xbd35f4a8	-0.044422776
9	0xbbfc9877	-0.007708605
10	0x3ce95b0a	0.028485794
11	0xbc76de69	-0.015067675
12	0xbd1f622b	-0.03891198
13	0x3d1be4c1	0.038059954
14	0x3c056762	0.008142324
15	0xbd06e61e	-0.0329343
16	0xbce5dbaa	-0.028058846
17	0xbca0a1dd	-0.019608432
18	0xba8b0394	-0.0010605925
19	0x3c8b2db7	0.016989572
20	0xbbcc384e	-0.006232298
21	0x3b89342a	0.0041871266
22	0x3a0dd913	0.000541107
23	0xbaa0892d	-0.0012247913
24	0x3cd26fbc	0.025688045
25	0x3d8dc22f	0.06921803
26	0x3d5ad9ba	0.053430296
27	0xba70aac1	-0.0009180718
28	0xbd54ea63	-0.05198134
29	0xbd4d7dc6	-0.050168775
30	0xbc41fa8d	-0.011839521
31	0xbd76f442	-0.060291536
32	0xbd45af73	-0.048263025
33	0x3cb6581a	0.022258807
34	0x3d0e7b8b	0.03478579
35	0x3d8c3b9c	0.06847307
36	0x3d21cb26	0.039500378
37	0x3d506736	0.05087968
38	0x3d07d2b9	0.033159945
39	0x3d18e125	0.03732409
40	0xbc8b169a	-0.01697855
41	0x3cde32ed	0.027123893
42	0x3c424a9b	0.011858608
43	0x3d4e2f74	0.050338224
44	0x3d5e60f1	0.05429167
45	0xbc84a845	-0.016193518
46	0xbd580385	-0.05273773
47	0xbce46641	-0.02788079
48	0x3d67b06b	0.05656473
49	0xbc32cb93	-0.010912794
50	0x3c0bc8f4	0.008531798
51	0xbc2dd86b	-0.01061068
52	0x3c6d0aa5	0.01446787
53	0x3ca094da	0.019602228
54	0xbbd197b0	-0.0063962564
55	0xbb71ef40	-0.0036916286
56	0x3cfc346e	0.03078672
57	0x3d0de887	0.034645583
58	0xbc4852cc	-0.012226772
59	0xbd0fcbec	-0.035106584
60	0xbd3cd480	-0.046101093
61	0xbc936f6a	-0.017997462
62	0xbb81fc8a	-0.0039668726
63	0x3d18df83	0.037322532
64	0xbb5284b7	-0.0032122561
65	0x3c794ceb	0.015216093
66	0xbd2e9dcb	-0.04263095
67	0xbc512858	-0.012765966
68	0xbbf73acd	-0.0075448514
69	0x3cd2b605	0.02572156
70	0x3cd11350	0.025521904
71	0xbc80da65	-0.015729139
72	0x3bd208b5	0.0064097294
73	0x3d0f4c22	0.034984715
74	0x3c00f29f	0.007870345
75	0xbd156685	-0.036474723
76	0x3d297345	0.041369695
77	0x3d5ac4f1	0.053410474
78	0x3b4afe55	0.0030974348
79	0x3b8f6e78	0.0043771826
80	0xbc2bb22a	-0.010479489
81	0xb81eacc0	-3.783102e-05
82	0x3c8bbfbd	0.017059201
83	0xbc2cda53	-0.010550099
84	0xbc896d6e	-0.016775813
85	0xbd7afece	-0.061278157
86	0xbcb0e321	-0.021592679
87	0xbc681cfa	-0.014167065
88	0xbda14ad5	-0.07875601
89	0xbd811ca2	-0.063042894
90	0xbd114c48	-0.035473138
91	0xbce5fc05	-0.028074274
92	0xbc8c5184	-0.017128713
93	0xbcd660e9	-0.026169257
94	0xbd094ac8	-0.033518583
95	0x3d305330	0.043048084
96	0x3d9bdae2	0.07610108
97	0x3d57ef75	0.0527186
98	0x3d0a30e2	0.033738025
99	0x3da40522	0.080087915
100	0x3cfb77ea	0.030696828
101	0xbd174bbd	-0.036937464
102	0x3c9311ed	0.017952884
103	0xbc9b10b5	-0.018928865
104	0xbc4ed257	-0.012623391
105	0x3cec7b1f	0.028867302
106	0xbd0b9a55	-0.03408273
107	0x3bef0903	0.0072947755
108	0x3c69806e	0.014251811
109	0x3cf6c518	0.030123278
110	0x3cb4cda1	0.022070708
111	0xbbf66b53	-0.0075201183
112	0xbcddf96d	-0.027096475
113	0xbc22566c	-0.0099083
114	0x3c6d16e3	0.014470789
115	0xbd3cfae7	-0.046137717
116	0x3af48370	0.0018654894
117	0xbc8c3889	-0.017116802
118	0x3cdd036d	0.026979173
119	0x3cb6778d	0.022273803
120	0xbae4d54a	-0.0017458585
121	0x3bd7f3ba	0.006590334
122	0xbcda773c	-0.026668184
123	0xbcd0ced5	-0.02548925
124	0xbd173767	-0.03691807
125	0x3d5ca11d	0.053864587
126	0x3d5d0b92	0.053966112
127	0x3d278c70	0.040905416
128	0x39c5baf4	0.0003771406
129	0xbd65b0a1	-0.05607665
130	0x3b78d7e8	0.0037970487
131	0x3c480e5b	0.012210454
132	0x3c96a129	0.018387394
133	0xbd8af7da	-0.06785555
134	0xbd4129b5	-0.047158916
135	0xbd36a178	-0.044587582
136	0xbd416b81	-0.047221664
137	0xbd426bf6	-0.04746624
138	0xbd6ce9b4	-0.057840064
139	0x3ccd49f7	0.025059683
140	0xbd48799c	-0.0489441
141	0xbce88cdf	-0.028387485
142	0xbce4edeb	-0.02794548
143	0xbd0fc53d	-0.03510021
144	0xbce3b962	-0.027798358
145	0x3d0a7ab0	0.03380841
146	0x3d60857e	0.054814808
147	0x3d2926e8	0.04129687
148	0x3ced3a84	0.028958566
149	0x3d64b690	0.055838168
150	0xbd65857b	-0.0560355
151	0xbd172f60	-0.036910415
152	0x3c492ee9	0.012279251
153	0x3d8f74cc	0.07004699
154	0xbd046764	-0.032325163
155	0xbcb18059	-0.021667646
156	0x3c84778b	0.016170284
157	0xbcfeba25	-0.03109462
158	0xbd506403	-0.05087663
159	0xbd445634	-0.047933772
160	0xbc3419de	-0.010992495
161	0xbb37baa2	-0.0028034826
162	0xbcbef85a	-0.023311783
163	0xbd296765	-0.04135837
164	0x3c8fc5e0	0.017550409
165	0xb99baa38	-0.00029690727
166	0xbd041a0b	-0.0322514
167	0x3d9f5d30	0.07781446
168	0x3db7a0ce	0.08966218
169	0xbb2d70bb	-0.0026464898
170	0xbd317b9a	-0.043330766
171	0x3c761d07	0.015021569
172	0x3d4bd917	0.04976758
173	0x3d2a8ebd	0.041640032
174	0x3d1931c4	0.037400976
175	0x3d3ef226	0.04661765
176	0x3c3973cf	0.011319115
177	0x3d3924b1	0.045201007
178	0xbba8377f	-0.005133569
179	0xbc4536ea	-0.012037018
180	0x3cfabf04	0.030608661
181	0x3ce03a53	0.027371561
182	0x3b9e11a6	0.004823881
183	0xbb490a1a	-0.0030676187
184	0xbd417e4c	-0.047239587
185	0x3cf93732	0.030421827
186	0x3d025e01	0.03182793
187	0xbc0edc67	-0.00871954
188	0xbc36ca27	-0.011156595
189	0xbcc7fb93	-0.024411952
190	0xbdc6ae1d	-0.09701178
191	0xbd96d437	-0.073646955
192	0x3cc9309a	0.024559308
193	0xbc9094cd	-0.017649079
194	0x3ce9a055	0.028518835
195	0xbb0aff93	-0.0021209463
196	0x3cba2e9a	0.0227273
197	0x3d658b2b	0.056040924
198	0xbba276d4	-0.004958013
199	0xbbde5631	-0.006785177
200	0xbd4a1484	-0.04933597
201	0xbce00c5c	-0.027349643
202	0xbc9a0f77	-0.018806202
203	0xbd426ef4	-0.047469094
204	0xbd0476b5	-0.03233977
205	0x3d4e6577	0.050389733
206	0xbbf216d6	-0.007387976
207	0x3d2d78f3	0.042351674
208	0xbd31090e	-0.043221526
209	0xbc8d2ad4	-0.017232336
210	0x3d4bac23	0.04972471
211	0xbcdc9bf7	-0.026929839
212	0xbbf81c8e	-0.0075717634
213	0x3d22023e	0.03955292
214	0x3c978e2b	0.018500408
215	0xbb869882	-0.004107536
216	0xbd11c84a	-0.0355914
217	0x3d1a7d78	0.037717313
218	0x3c58d4ff	0.013234376
219	0x3b86f82a	0.004118939
220	0xbd3362f9	-0.04379556
221	0x3d1ab2f8	0.037768334
222	0xbd169905	-0.036767025
223	0xbd15d0b7	-0.036576
224	0xbc1b324e	-0.009472443
225	0x3cb4441b	0.022005131
226	0x3c14d7b9	0.009084635
227	0x3bf38b72	0.0074323947
228	0xbcf3f90f	-0.029781846
229	0xbd1a18d5	-0.037621338
230	0xbd1236a1	-0.03569663
231	0xbcb80773	-0.02246449
232	0x3cff6e40	0.031180501
233	0xbcbf8c12	-0.02338222
234	0xbd3dd4b1	-0.046345416
235	0xbb84f626	-0.0040576635
236	0x3d8fa97c	0.070147485
237	0x3d72d747	0.059287336
238	0xbd39a4f6	-0.045323335
239	0xbb534213	-0.0032235428
240	0xbcb1708c	-0.021660112
241	0xbd265a43	-0.040613424
242	0x3d2050ca	0.039139546
243	0xbd0c1b82	-0.03420592
244	0x3d5fbcb6	0.05462333
245	0xbd79cf38	-0.060988635
246	0x3ca49f0d	0.020095373
247	0x3cba3795	0.022731582
248	0xbb959a5e	-0.004565521
249	0x3c097b0e	0.008391155
250	0xbc7c42d3	-0.0153967915
251	0x3c21197d	0.009832737
252	0x3cedec95	0.029043475
253	0xbc2aaba3	-0.010416898
254	0x3d29854b	0.041386884
255	0x3cefb50b	0.029261133

7.bias f4 [120]
0	0xbc693259	-0.014233195
1	0x3cbed2d9	0.0232939
2	0x3c9a5587	0.01883961
3	0xbd2d3884	-0.042290226
4	0x3ce377d9	0.027767109
5	0xbd1d2f76	-0.03837534
6	0x3b95c3ec	0.004570475
7	0x3d1e6b9a	0.038676836
8	0xbc00ee76	-0.0078693535
9	0x3cfae58c	0.030627035
10	0xbd08ff15	-0.03344639
11	0xbc74568c	-0.0149132125
12	0xbccb33e4	-0.024805017
13	0x3d053e8b	0.03253035
14	0xbd42eb96	-0.047587954
15	0x3c183997	0.009291074
16	0x3d4a4950	0.049386322
17	0xbd118859	-0.035530422
18	0x3ad05c8c	0.0015896722
19	0xbb7ff10e	-0.0039053592
20	0xbb245986	-0.0025077774
21	0xbc9e5d9c	-0.019331746
22	0xbcff4d3c	-0.031164758
23	0x3b82f798	0.0039968006
24	0xbb17c11d	-0.0023155876
25	0xbc170ff1	-0.009220109
26	0x3bbaadca	0.005696987
27	0xbb6cb38c	-0.003611776
28	0x3b7be69e	0.003843702
29	0xbc58a04f	-0.013221814
30	0x3d45cca8	0.04829088
31	0xbc952ce6	-0.018209886
32	0x3d10a983	0.03531791
33	0x3c266115	0.010154982
34	0x3c8db0e8	0.01729627
35	0xbbbfa6f2	-0.005848759
36	0xbb8f3a78	-0.0043709837
37	0x3cafc1fb	0.021454802
38	0xbc5e198c	-0.013555896
39	0x3d3b52f2	0.0457334
40	0x3bda0595	0.0066534975
41	0xbbf2cc7c	-0.0074096303
42	0x3c246465	0.010033702
43	0x3bb3bd62	0.0054852227
44	0xbd36b226	-0.04460349
45	0xbcdce58e	-0.026964929
46	0x3d2435fc	0.040090546
47	0x3b8ba52d	0.004261634
48	0x3d1106cd	0.035406876
49	0xbbe79c7a	-0.007068214
50	0xbd18621d	-0.037202943
51	0x3b46d767	0.0030340792
52	0xbc7d9293	-0.015476841
53	0x3d05663d	0.032568205
54	0x3c24daee	0.0100619625
55	0xb9393b7c	-0.00017665135
56	0x3bea0a45	0.0071423375
57	0xbd1c5e73	-0.03817601
58	0x3cc041e8	0.023468927
59	0x3c700ff7	0.014652244
60	0xbce16025	-0.027511666
61	0x38c8605a	9.55469e-05
62	0xbc0a402d	-0.008438152
63	0xbcdf0edc	-0.027228765
64	0xbb0dec25	-0.0021655646
65	0x3b91affe	0.0044460287
66	0x3d139e04	0.036039367
67	0xbd11a678	-0.035559148
68	0xbd049127	-0.03236499
69	0xbba36e65	-0.0049875253
70	0x3c143979	0.009046906
71	0xbc7f369e	-0.015576987
72	0xbcec309f	-0.028831778
73	0x3d665e6c	0.05624239
74	0xb804e195	-3.1681342e-05
75	0xbbfb209f	-0.007663801
76	0xbd35bdbe	-0.044370405
77	0x3beed0c9	0.0072880727
78	0x3c247528	0.010037698
79	0x3c13dc2d	0.009024662
80	0xb89f675f	-7.600965e-05
81	0x3d07e9db	0.033182006
82	0x3c062e51	0.008189754
83	0xbb8669a8	-0.0041019507
84	0xbbac30b9	-0.0052548316
85	0x3ad48835	0.0016214909
86	0x3cc4b9bf	0.024014352
87	0xbbed18bf	-0.007235616
88	0xbd17bbf9	-0.0370445
89	0x3c9c1433	0.0190526
90	0x3d04ebad	0.03245132
91	0x3bae4555	0.0053183236
92	0xbc3e3bb7	-0.011610917
93	0x3d4f8937	0.050667968
94	0xbc885075	-0.016639927
95	0xbd0f9eab	-0.035063427
96	0xbcc42d67	-0.02394743
97	0xbc0ebd27	-0.00871209
98	0x3d20dd2b	0.039273422
99	0xbc468bee	-0.012118323
100	0xbd271e95	-0.04080065
101	0xbc996963	-0.01872701
102	0x3d04a928	0.032387882
103	0xbd212a29	-0.039346848
104	0xbcc67cbe	-0.024229404
105	0x3d03de67	0.03219452
106	0x3c99a4b7	0.0187553
107	0xbc91414c	-0.017731331
108	0x3cdf46aa	0.027255375
109	0xbcbdd4fa	-0.023172844
110	0x3b9a098b	0.0047008446
111	0x3d18e647	0.037328985
112	0x3c8d0c02	0.01721764
113	0xbd1ff734	-0.03905411
114	0xbd7186fe	-0.05896663
115	0xbc1f21de	-0.009712664
116	0x3d3e6a80	0.046488285
117	0xb8ede6b4	-0.000113440125
118	0x3c9aa6b2	0.018878315
119	0xbb0161eb	-0.0019742202

9.weight f4 [84, 120]
0	0x3c215af6	0.009848347
1	0xbc12060e	-0.008912576
2	0xbd67533b	-0.05647586
3	0x3c43f741	0.011960805
4	0x3da9e23b	0.08295103
5	0xbd43e9e0	-0.047830462
6	0xbd6f5a8b	-0.058435958
7	0xbd8f5a06	-0.069995925
8	0x3d0136b2	0.031546302
9	0x3c9a29cf	0.018818764
10	0x3cd16887	0.025562538
11	0xbd9664f9	-0.07343478
12	0xbdc44dec	-0.09585175
13	0xbd0dcf66	-0.03462162
14	0xbd8cc5ae	-0.06873642
15	0x3d8d9302	0.06912805
16	0xbb6a3f27	-0.0035743208
17	0xbc6b3177	-0.014355055
18	0xbd819a6f	-0.06328284
19	0xbc0235a9	-0.007947364
20	0x3cfaf391	0.03063372
21	0xbc7d5699	-0.015462541
22	0x3d91baf4	0.071157366
23	0xbd62e749	-0.055396352
24	0x3b98a6bc	0.004658548
25	0x3d8f68b4	0.070023924
26	0x3cb3e468	0.021959499
27	0xbbb8e3d8	-0.0056423955
28	0x3cd3b74b	0.025844237
29	0x3b614e5f	0.0034378988
30	0xbcc9c8ee	-0.024631944
31	0x3d172693	0.03690202
32	0x3b49734e	0.0030738893
33	0xbd8a9603	-0.06766894
34	0xbcedaf3e	-0.029014226
35	0x3db59336	0.08865969
36	0xbd9df259	-0.0771224
37	0x3d7a30e2	0.061081775
38	0xbd2c9253	-0.042131733
39	0xbd5f26be	-0.054480307
40	0x3c0f8085	0.008758669
41	0xb9d8c8a5	-0.00041348222
42	0x3d2b3219	0.041795824
43	0x3c9530e0	0.018211782
44	0x3d93abcc	0.07210502
45	0x3c87f194	0.016594686
46	0xbc4ac46b	-0.012375931
47	0x3d27d43c	0.040973887
48	0x3c88f438	0.016718015
49	0x3caa37f2	0.02077863
50	0xbd35cd42	-0.044385202
51	0xbd2e1ea5	-0.042509694
52	0x3d59d153	0.053178143
53	0x3d815148	0.06314331
54	0x3c499fc6	0.012306159
55	0xbd676b02	-0.056498535
56	0x39e83b05	0.0004429446
57	0x3d83f96f	0.0644406
58	0xbd87ea36	-0.06636469
59	0x3d7d4e51	0.061842266
60	0x3e03cf6f	0.12872098
61	0xbd4f4187	-0.0505996
62	0x3cd2b18e	0.02571943
63	0x3d505c8b	0.050869506
64	0x3dd1ca4f	0.102436654
65	0x3d335b4e	0.043788247
66	0x3d28e1b2	0.041230865
67	0xbb9d7429	-0.004805107
68	0x3c9d238b	0.019181987
69	0x3d5ebf33	0.05438156
70	0x3de14de6	0.11001186
71	0xbca60a5e	-0.020268615
72	0x3b221b20	0.0024735406
73	0xbd7ddc46	-0.061977647
74	0x3d95ceff	0.07314872
75	0x3d82f889	0.063950606
76	0x3e05ce37	0.13066946
77	0xbde4da22	-0.11174418
78	0xbda81f8d	-0.08209143
79	0x3d206a48	0.039163858
80	0x3d3650d0	0.044510663
81	0xbd93555b	-0.07194015
82	0xbc2bed5f	-0.010493605
83	0xb9f9de43	-0.0004765858
84	0x3b2da30c	0.0026494889
85	0x3cc924f9	0.024553763
86	0x3e054bf9	0.13017263
87	0xbd53d399	-0.051715467
88	0x3d6a08c4	0.057137266
89	0xbc2524c7	-0.010079569
90	0xbb0a0b03	-0.0021063692
91	0xbc6fce60	-0.014636606
92	0xbc80ff03	-0.015746599
93	0x3cb4a4ba	0.022051204
94	0x3cb50a4c	0.022099636
95	0x3d6b8a88	0.05750516
96	0x3caebf2f	0.021331398
97	0xbd8381d4	-0.06421247
98	0x3c9725e1	0.01845068
99	0xbd877c12	-0.066154614
100	0x3c7c9700	0.015416861
101	0x3c015559	0.007893884
102	0x3d62820b	0.0552998
103	0xbd3cad65	-0.0460638
104	0xbc58a2fe	-0.013222454
105	0x3d0fbc1f	0.035091516
106	0xbcd65a7e	-0.026166197
107	0x3d31a14c	0.043366715
108	0xbd8e5174	-0.0694913
109	0xbd1208a6	-0.03565278
110	0x3d2c6645	0.04208972
111	0x3d9b7e3e	0.07592438
112	0xbd8d33a0	-0.06894612
113	0xbc24829a	-0.010040903
114	0xbd1e8a20	-0.038705945
115	0xbdc92026	-0.09820585
116	0xbb0d1b83	-0.002153129
117	0x3dd479b0	0.103747725
118	0xbcc9b2d0	-0.024621397
119	0xbd53e3a5	-0.05173077
120	0x3da3d6ed	0.07999978
121	0xbd6b469b	-0.05744038
122	0xbc65283f	-0.013986646
123	0x3da96a18	0.08272189
124	0x3da936b3	0.08262386
125	0x3cc04d36	0.023474317
126	0xbd5400bf	-0.051758524
127	0xbc4c96f5	-0.012487163
128	0xbb8d72ab	-0.004316648
129	0x3d67ecdc	0.05662237
130	0x3d99c4f5	0.0750827
131	0xbc9b220f	-0.018937139
132	0xbaa56c8a	-0.0012620848
133	0x3d127ef3	0.0357656
134	0xbc581216	-0.013187906
135	0xbd8cc5ad	-0.06873641
136	0xbda82106	-0.08209424
137	0xbd8f4e7b	-0.06997391
138	0x3c32176b	0.010869841
139	0xbd4faea8	-0.050703675
140	0xbc59c35f	-0.013291209
141	0xbcb7b083	-0.022423035
142	0x3da55813	0.080734394
143	0xbd6f2af9	-0.05839059
144	0xbdc1c272	-0.094609156
145	0x3d1b4910	0.037911475
146	0xbd39fba9	-0.045406017
147	0xbc409360	-0.011753887
148	0xbd24e5ed	-0.040258337
149	0x3d3c92fb	0.04603861
150	0x3da11257	0.07864826
151	0xbd210a4e	-0.039316468
152	0x3cd7f07a	0.026359785
153	0x3d3d6057	0.046234455
154	0x3d7fbe60	0.062437415
155	0xbcb35d51	-0.021895083
156	0x3dbfa375	0.09357349
157	0x3cb20a87	0.021733535
158	0xbd1850cf	-0.03718644
159	0x3e01c448	0.12672532
160	0xbc4371e3	-0.011929008
161	0xbd00a263	-0.031404864
162	0x3d8b1bc3	0.067924045
163	0xbd8fbade	-0.07018064
164	0x3d02a8d5	0.031899292
165	0x3cb702a7	0.022340132
166	0x3d17a17f	0.03701925
167	0xbd6f8c4d	-0.05848341
168	0xbd8382a7	-0.06421404
169	0x3c98a32f	0.0186325
170	0xbca594c4	-0.020212539
171	0x3dab0b2c	0.0835174
172	0x3d22eef9	0.039778683
173	0x3e07d74e	0.13265726
174	0xbd2a2872	-0.041542478
175	0x3c84bdd9	0.016203808
176	0x3d47c710	0.048773825
177	0xbc30f7b5	-0.010801245
178	0xbcc41d8a	-0.023939867
179	0x3d3fc83f	0.04682183
180	0x3d408405	0.047000904
181	0xbd817279	-0.06320662
182	0xbd7ae48c	-0.061253116
183	0xbd8025f3	-0.06257238
184	0x3d800e7b	0.06252762
185	0x3cc29120	0.023750842
186	0x3cdc1f60	0.02687043
187	0x3d904b5e	0.07045625
188	0xbd5c0d4f	-0.05372363
189	0xbc81c174	-0.015839316
190	0x3c929e73	0.01789782
191	0xbdb2f51f	-0.087381594
192	0xbc70b864	-0.0146924
193	0x3daaa542	0.08332302
194	0xbcb15b00	-0.021649837
195	0xbd3ccc35	-0.046093185
196	0x3d95e6b0	0.07319391
197	0xbc5ed830	-0.013601348
198	0x3e2be446	0.16786298
199	0x3b0e9983	0.002175898
200	0xbd2cd46e	-0.042194776
201	0xbd7336c4	-0.0593784
202	0x3d9aaabe	0.07552098
203	0xbd3a72a4	-0.045519486
204	0x3d257a1d	0.04039966
205	0x3d00d671	0.031454507
206	0xbd9c0425	-0.07617978
207	0x3da067b2	0.07832278
208	0xbd3a35e1	-0.04546154
209	0x3d0b9dbb	0.03408597
210	0x3d30413b	0.04303096
211	0xbcdeb95f	-0.027188001
212	0x3d276c38	0.04087469
213	0x3d81f27a	0.06345077
214	0xbd206c8a	-0.03916601
215	0xbde15bd1	-0.11003841
216	0xbd3e4b41	-0.046458486
217	0x3d6ea4f3	0.058262777
218	0x3dc71fa9	0.097228356
219	0xbd9affc4	-0.07568315
220	0xbd3c1710	-0.04592043
221	0x3d8e94aa	0.06961949
222	0xbcd4a6dd	-0.025958473
223	0x3d5775b2	0.052602477
224	0xbd865c1e	-0.06560539
225	0xbd37010c	-0.044678733
226	0xbca22008	-0.019790664
227	0x3dc5b8fa	0.09654422
228	0xbd838aaa	-0.064229324
229	0x3cf397ad	0.02973541
230	0xbd189ea3	-0.037260663
231	0x3db2bd4b	0.08727511
232	0x3cb7ffd5	0.022460857
233	0xbd68ee5e	-0.05686795
234	0x3d3dddc2	0.046354063
235	0x3d8538c5	0.065049686
236	0x3d941116	0.072298214
237	0xbc262808	-0.01014138
238	0xbce960f6	-0.028488617
239	0x3d413b9a	0.04717598
240	0xbc27c5fd	-0.010240075
241	0xbd454038	-0.048156947
242	0x3c03e1ba	0.008049423
243	0x3bcc228f	0.0062297056
244	0xbd64b36d	-0.055835176
245	0x3cf53939	0.029934512
246	0xbd3787ce	-0.044807248
247	0x3b0700b6	0.002059979
248	0x3ca3034d	0.019899035
249	0xbac45252	-0.0014978147
250	0x3d8cb2d8	0.06870049
251	0xbc744b51	-0.014910535
252	0x3cc5069f	0.024051009
253	0x3b1b4dcb	0.0023697491
254	0xbc9ec53b	-0.019381156
255	0x3d9662dc	0.07343075

9.bias f4 [84]
0	0xbda0239d	-0.07819293
1	0xbd5afafb	-0.05346201
2	0xbd8f6eec	-0.070035785
3	0xbd28f4c2	-0.041249044
4	0x3d61a68b	0.05509047
5	0xbb9b272f	-0.0047348957
6	0x3d88511b	0.06656095
7	0x3b2316ae	0.0024885344
8	0xbd24ea94	-0.040262774
9	0x3a947e28	0.0011329101
10	0xbd7a92b6	-0.06117507
11	0xbd7ee832	-0.062233157
12	0xbd8c38ed	-0.06846795
13	0x3d494adb	0.049143653
14	0x3da7ae00	0.08187485
15	0x3c914530	0.017733186
16	0x3d80bdf0	0.06286228
17	0x3bb2636b	0.0054439805
18	0x3cc1e38e	0.023668077
19	0x3d59ae7b	0.053144913
20	0x3db89121	0.09012056
21	0xbd648195	-0.05578764
22	0xbd219f38	-0.039458483
23	0x3c998f05	0.018744955
24	0xbc7aef5a	-0.015315855
25	0xbd5d656b	-0.054051798
26	0xbcb7a65c	-0.022418194
27	0xbb8c1fbb	-0.0042762435
28	0x3b295adb	0.0025841508
29	0xbcd3c7a0	-0.025852025
30	0xbd21dd56	-0.039517723
31	0x3d2e4ba8	0.04255262
32	0x3d578833	0.052620124
33	0x3c0772c2	0.0082671065
34	0x3d51a48a	0.051182307
35	0x3bdc02f8	0.006714221
36	0x3c8555a4	0.016276188
37	0xbd858e37	-0.06521266
38	0x3d6a4b76	0.05720087
39	0x3a20e1f7	0.0006137187
40	0xbd7d7d2c	-0.06188695
41	0x3da952ac	0.082677215
42	0xbd69753f	-0.05699658
43	0x3d99618f	0.07489311
44	0x3cc33a74	0.023831584
45	0xbd8a1651	-0.06742538
46	0xbd8a9fcf	-0.06768762
47	0x3d2afe09	0.041746173
48	0x3d8cec66	0.06881027
49	0xbc975bac	-0.01847633
50	0x3c55a3cf	0.013039543
51	0x3cb3c117	0.021942658
52	0x3d581630	0.052755535
53	0x3d904607	0.07044607
54	0x3d1f0ed6	0.038832508
55	0x3dd1dbb6	0.10246985
56	0xbbe798b7	-0.0070677656
57	0x3d887b0c	0.06664094
58	0x3cd3421d	0.025788361
59	0xba09e49d	-0.0005260201
60	0xbc19ea1e	-0.009394197
61	0x3d9caad2	0.07649769
62	0x3dc8d601	0.09806443
63	0xbd4b6a7e	-0.049662106
64	0xbcf2b0c4	-0.029625304
65	0xbdbb9acf	-0.09160387
66	0x3da92b8e	0.082602605
67	0x3d8e0429	0.06934387
68	0xbda0ae43	-0.07845738
69	0x3cd2a4d6	0.025713366
70	0x3dd60b60	0.10451388
71	0xbd6e47b2	-0.058173843
72	0xbd037553	-0.03209431
73	0x3dcc4ff9	0.09976191
74	0x3d9f457d	0.07776926
75	0x3d95e7b6	0.07319586
76	0x3da492c9	0.080358095
77	0x3d703d0f	0.05865198
78	0xbd2e0153	-0.04248173
79	0x3d47d3fb	0.048786145
80	0xbda507d2	-0.08058132
81	0xbd85841c	-0.065193385
82	0x3d01b4bc	0.031666502
83	0x3d0a09ca	0.03370074

11.weight f4 [10, 84]
0	0xbbaf43da	-0.0053486647
1	0xbe0fa637	-0.1402825
2	0x3c81ff20	0.015868723
3	0x3d8c8279	0.06860823
4	0xbe1a5d76	-0.15074715
5	0xbc223603	-0.009900573
6	0x3e357297	0.17719494
7	0x3c9c3715	0.019069234
8	0x3dad5542	0.08463527
9	0x3d7446e6	0.059637927
10	0x3d28d73d	0.041220892
11	0x3b37e6ae	0.002806108
12	0x3cb09f70	0.0215604
13	0x3e325ae4	0.17417485
14	0x3e984eeb	0.2974771
15	0x3d44e571	0.048070375
16	0xbe69e23c	-0.22840208
17	0x3c973efa	0.018462647
18	0xbc141791	-0.009038822
19	0x3e6f75af	0.23384736
20	0x3eb2ff0f	0.3496022
21	0xbd558e96	-0.052137934
22	0xbd5ffa1e	-0.05468189
23	0xbeafbdef	-0.34324595
24	0x3e124e37	0.14287649
25	0xbe00eb19	-0.12589683
26	0xbb890283	-0.0041812076
27	0x3ae5eb90	0.0017541517
28	0x3bfed7a4	0.007777171
29	0xbd785115	-0.0606242
30	0xbd55296b	-0.052041452
31	0xbdfdbe31	-0.12389792
32	0x3dc4e116	0.09613244
33	0xbd45b4cf	-0.048268136
34	0xbe6b56e3	-0.22982363
35	0x3e1fe5d5	0.15615018
36	0x3cf42d4a	0.029806752
37	0x3d26c496	0.040714823
38	0xbd5bb010	-0.053634703
39	0xbe1ad7fd	-0.15121455
40	0xbd92b0b4	-0.0716261
41	0xbd0ecea6	-0.034865044
42	0x3d56653d	0.052342642
43	0xbdc8bf3e	-0.098021016
44	0xbdf0552d	-0.11734996
45	0x3d99b745	0.07505659
46	0x3d47ebeb	0.048808973
47	0xbda82231	-0.082096465
48	0xbe25048d	-0.16115017
49	0x3e0faab1	0.14029957
50	0x3b8645bc	0.0040976685
51	0xbda09513	-0.07840934
52	0x3e5e52bd	0.2171125
53	0xbe4456ca	-0.19173732
54	0xbdfd9cb4	-0.123834044
55	0xbdd67f53	-0.10473504
56	0xbd3d505c	-0.046219215
57	0xbda7fba1	-0.08202291
58	0xbdceebde	-0.10103582
59	0xbe3b36d7	-0.18282638
60	0x3c951bf6	0.01820181
61	0xbe02d21b	-0.12775461
62	0xbe2ef689	-0.17086233
63	0xbca3b914	-0.019985713
64	0xbd8a929b	-0.06766244
65	0xbdadee33	-0.084926985
66	0xbd090c0c	-0.033458754
67	0x3d127b83	0.03576232
68	0xbb75e4fc	-0.0037520519
69	0xbd38ce21	-0.045118455
70	0x3e495016	0.19659457
71	0xbd84a38b	-0.06476506
72	0xbdcfc989	-0.10145862
73	0x3e3013d5	0.17195065
74	0x3d4d300f	0.05009466
75	0xbd76bdfd	-0.06023978
76	0x3b96b8a6	0.0045996485
77	0x3e2cfec5	0.16894062
78	0x3da23774	0.07920733
79	0x3d31f266	0.04344406
80	0xbd72136f	-0.059100565
81	0xbddf2cca	-0.10897215
82	0x3c3148ed	0.0108206095
83	0x3e994991	0.2993894
84	0xbddb386e	-0.107041225
85	0x3d534145	0.051575918
86	0x3d8a6d7a	0.06759162
87	0xbdf890e2	-0.12137009
88	0xbe2a5aa9	-0.16636147
89	0x3e23cfe5	0.15997274
90	0x3d9ac5d4	0.07557264
91	0xbe9fff62	-0.3124953
92	0xbdbfc906	-0.09364514
93	0xbdde807e	-0.10864352
94	0xbdf2c4c8	-0.11853939
95	0xbc3c4d2e	-0.01149301
96	0x3dba83d8	0.091071784
97	0xbe0c88bc	-0.13724035
98	0xbe2b2936	-0.1671494
99	0xbe01442d	-0.12623663
100	0xbdabe499	-0.08393211
101	0x3d3abb24	0.045588627
102	0xbdac0f0a	-0.08401306
103	0xbe6f74da	-0.23384419
104	0x3d2451ff	0.04011726
105	0xbda0a507	-0.078439765
106	0xbabc52ac	-0.00143679
107	0xbe505f9a	-0.20348969
108	0xbd0c93b5	-0.034320552
109	0x3e408820	0.18801928
110	0xbd589493	-0.052876066
111	0x3da5a6c2	0.08088447
112	0xbd7e3d08	-0.062069923
113	0xbd7180ae	-0.05896061
114	0xbd3b5e3c	-0.045744166
115	0x3decc593	0.11561122
116	0x3c9f5daa	0.019453842
117	0xbdb0d0c0	-0.08633566
118	0xbe1445c7	-0.14479743
119	0xbe212302	-0.1573601
120	0x3cd1854d	0.025576258
121	0x3c146281	0.009056688
122	0x3dbd5b3f	0.092459194
123	0x3de00fb5	0.10940496
124	0x3a5c2bd1	0.0008398863
125	0xbe3e9a48	-0.18613541
126	0x3d025607	0.031820323
127	0x3dea25bf	0.11432981
128	0x3eb2f973	0.3495594
129	0x3d33858d	0.043828536
130	0xbbe29bed	-0.0069155605
131	0x3ec3053f	0.3808994
132	0x3caed96c	0.02134391
133	0x3c20910e	0.009800209
134	0x3a82fa7c	0.0009992863
135	0x3c4ad101	0.012378932
136	0xbeb3b2f8	-0.3509748
137	0x3d853019	0.065033145
138	0xbcbd9dee	-0.023146596
139	0x3e7f4dfd	0.24932094
140	0xbe2aa397	-0.16663967
141	0x3e588be1	0.2114711
142	0xbe1d4346	-0.15357694
143	0x3e4a32d4	0.19745952
144	0x3ca237dd	0.019802028
145	0x3ebedce3	0.37277898
146	0x3ea131c1	0.31483272
147	0xbceb2477	-0.028703911
148	0x3cb5405c	0.022125416
149	0xbd8522f3	-0.06500807
150	0x3d547441	0.05186868
151	0xbe1a8c75	-0.15092643
152	0xbcc14a0d	-0.02359488
153	0x3e3b5046	0.1829234
154	0xbd8eaae2	-0.06966187
155	0x3db1de8a	0.08685024
156	0xbe62a82d	-0.22134466
157	0x3d05a9cb	0.03263263
158	0x3bb48d55	0.005510012
159	0x3d2cd245	0.042192716
160	0xbdb8d433	-0.09024849
161	0x3d343bf8	0.044002503
162	0x3d28f530	0.041249454
163	0xbe4ca3c5	-0.19984348
164	0xbe28fcf2	-0.16502741
165	0x3ddb00f6	0.10693543
166	0x3ace0e29	0.0015720773
167	0xbdf33daf	-0.118769996
168	0x3e01e550	0.12685132
169	0x3e1e7812	0.1547549
170	0x3d17542e	0.036945514
171	0xbd8faf77	-0.07015889
172	0xbdd091db	-0.1018407
173	0x3dc9daed	0.0985621
174	0x3e8b8756	0.2725169
175	0xbe54c10d	-0.20776768
176	0x3b697fde	0.0035629193
177	0x3cd0cfdd	0.025489742
178	0xbaf71890	-0.0018851925
179	0x3daf3e42	0.085567966
180	0x3c3141cb	0.010818909
181	0xbc872241	-0.016495826
182	0xbd830812	-0.06398024
183	0xbd6fd1a9	-0.058549557
184	0xbda92b7e	-0.082602486
185	0x3d27d956	0.040978752
186	0x3dfbb156	0.122896835
187	0x3e0aafe5	0.13543661
188	0xbc1f7f65	-0.009734963
189	0xbd97094d	-0.07374821
190	0xbd8543ea	-0.06507094
191	0xbea65c0a	-0.32492095
192	0xbd98eae8	-0.0746668
193	0xbd4244bb	-0.047428828
194	0x3d5a6491	0.053318564
195	0xbd205ef8	-0.03915307
196	0x3d8da3e3	0.069160245
197	0x3defddbf	0.117122166
198	0xbc9756eb	-0.018474063
199	0xbe031a6e	-0.12803051
200	0xbe0f72ed	-0.14008684
201	0xbc6ccb1f	-0.014452725
202	0xbd875f05	-0.066099204
203	0xbe0e754f	-0.13911937
204	0xbd245723	-0.040122163
205	0xbd538183	-0.051637184
206	0xbe8ecfc9	-0.27892902
207	0xbe3731de	-0.17890117
208	0x3c998bf1	0.018743487
209	0xbdb901e8	-0.09033567
210	0x3e35c83c	0.17752165
211	0xbcbd332c	-0.02309569
212	0x3e96b6ca	0.29436332
213	0xbd533f77	-0.051574197
214	0xbd3073e8	-0.043079287
215	0x3e066226	0.13123378
216	0x3d9f6aef	0.07784068
217	0x3d0d5e91	0.034514014
218	0x3d833888	0.06407267
219	0xbe903113	-0.2816244
220	0x3e6b026b	0.22950141
221	0x3e3af4c5	0.18257435
222	0x3e3754f4	0.17903501
223	0x3e0ebf30	0.1394012
224	0xbc29644b	-0.010338853
225	0x3ec3231c	0.38112724
226	0x3e6cc852	0.23123291
227	0xbe951c5d	-0.29123202
228	0xbc4c2d7d	-0.012462017
229	0xbd347b70	-0.04406303
230	0xbd1e408b	-0.03863577
231	0x3e2274f8	0.15864933
232	0x3abe6e32	0.001452869
233	0x3d1c2388	0.038119823
234	0xbde46573	-0.111521624
235	0xbdf5c46c	-0.12000355
236	0xbd963ab5	-0.07335416
237	0xbd2c682c	-0.042091534
238	0xbd56aada	-0.05240903
239	0x3d65a197	0.056062307
240	0x3da75a4f	0.08171522
241	0xbe3d5751	-0.1849034
242	0x3dd2affe	0.10287474
243	0x3daea9c9	0.08528478
244	0x3dd265d4	0.102733284
245	0x3e85d913	0.26142177
246	0xbd9be19a	-0.076113895
247	0x3e95747c	0.29190433
248	0x3dfb4e61	0.12270809
249	0xbceaa9e2	-0.02864546
250	0xbccfe754	-0.02537886
251	0x3c704e43	0.014667097
252	0x3d905672	0.07047738
253	0xbe26c7fc	-0.16287225
254	0x3d81b71b	0.06333753
255	0x3c3a9882	0.0113889

11.bias f4 [10]
0	0x3c0554b5	0.0081378715
1	0x3e549dec	0.20763367
2	0xbe4db718	-0.20089376
3	0xbd7872dd	-0.060656417
4	0x3d89e5f4	0.06733313
5	0x3d5e42ea	0.054263033
6	0xbe28441f	-0.16432236
7	0xbd2fc789	-0.0429149
8	0x3d59d715	0.053183634
9	0x3d5fc50e	0.054631285
