curvature/toy_model.pt (torch_old, 1394 bytes, 3 tensors)

0.weight f4 [50, 1]
00000000: 1343 20bf c607 26c0 8f87 12c0 82e3 c53e
00000010: c69c 05bf 67fc 22bf 3d38 a23d 40a0 74be
00000020: 477e be3f a5fa 2bbe 877b cdbf cf12 01bf
00000030: ab91 1040 9254 623f 79f2 b5be 3deb 28c0
00000040: 7c22 8540 1e73 2140 5a79 483f fda7 1cbf
00000050: 1708 97bc a2a1 23bf f83b 3e3e 8863 ce3e
00000060: 4aa1 1c40 aa97 a7bf f056 7f3e 85d9 523e
00000070: 5e21 7b3e 90c0 85be 58a1 3b3f ce1f 0ebf
00000080: bec5 b8be a66e edbe ac18 9bbe 2683 81be
00000090: 7f32 6040 3735 7ebe d5a9 e3bf 6c35 65bf
000000a0: e91e 12bf 7071 6dbf fffa 36bf 572c ae40
000000b0: e8ca 4b40 2da4 5840 534f ecbe 2d4f 1bc0
000000c0: 3be4 0a3f ab6e fb3e
-0.6260235 -2.5942245 -2.2895238 0.38650137 -0.5219234 -0.63666385 0.07920883 -0.23889256
1.4882287 -0.16794832 -1.6053323 -0.50419325 2.2588909 0.88410294 -0.35536554 -2.6393578
4.1604595 2.5226512 0.7831017 -0.6119383 -0.018436475 -0.6391851 0.18577564 0.4031031
2.4473443 -1.3093159 0.24935508 0.2059079 0.24524447 -0.26123476 0.73293066 -0.5551728
-0.36088365 -0.4637348 -0.3029226 -0.2529537 3.503082 -0.24824987 -1.7786204 -0.8953464
-0.57078415 -0.92751217 -0.7147674 5.4429126 3.1842594 3.3850205 -0.4615427 -2.4267075
0.542545 0.4910787

0.bias f4 [50]
00000000: 00f1 f23e 3e4b 903f 82dc 80bf af04 533d
00000010: dc3e 253f 3a9d 02bf 672e d7be 8215 033f
00000020: 5392 e43e c45c 3c3e 5da1 0dbe addc 06bf
00000030: fc15 343f aa16 813f d955 1b3f 2ba3 8a3e
00000040: cbed 61bf ad4b 8cbf 76d8 743f 864f 13bf
00000050: 0510 0ebf a2c1 17bf 27d9 91be 3cea 40bd
00000060: c4a2 8dbf 3858 ca3e 1f6e 733d c57e 71bf
00000070: d3a3 19bf a3a0 443e 8453 2f3f 560d bdbd
00000080: aa2f a13e 1101 09bf 8cdd 593f 5f03 203f
00000090: fe4d 2ec0 2e16 403f 9a5b a1be bb5e 80bf
000000a0: eb9c 203f 2032 27bf 3423 5dbf efd7 89c0
000000b0: 8d1b 2f40 636e c2bf 44aa b83e 2b2b 7d3e
000000c0: 1280 663f 5e7a 4abf
0.47449493 1.1272962 -1.0067294 0.05151814 0.6454904 -0.5102116 -0.4202759 0.51204693
0.44642887 0.18394762 -0.13831086 -0.52680475 0.70346045 1.0085042 0.6067787 0.27077612
-0.8825347 -1.0960594 0.95642793 -0.5754322 -0.55493194 -0.59279835 -0.28485987 -0.047098383
-1.1065297 0.3952043 0.05943119 -0.9433406 -0.600156 0.19201903 0.6848681 -0.09231059
0.31481677 -0.5351725 0.8510368 0.62505144 -2.7235103 0.75033844 -0.315152 -1.002891
0.6273944 -0.6531086 -0.8638184 -4.307609 2.7360566 -1.5189937 0.36067402 0.24723499
0.9003917 -0.7909297

2.weight f4 [1, 50]
00000000: 57c8 bebd ba27 5abe 2194 63bf fa0c 82be
00000010: 8aca 8f3d 1602 4e3e 75b4 09be 26fb f73c
00000020: 32a6 943d dbca a63d 3e9a 4abe 54c2 1a3e
00000030: b671 ce3e 698e b0be da3c 0f3e 7d0b cc3e
00000040: 6bbc f7be 7026 1c3e 4f33 4cbe 7973 493e
00000050: 3bad c9bc dbc3 c33e 175b c2be 65b2 4cbe
00000060: 4975 483e 61c5 d13e ba77 9abe 7ab6 0bbd
00000070: 0ecf 06be 4ab3 153c 96e7 c7be 0410 8b3e
00000080: 9d8c 4b3e 595a ed3d 4442 083e 08b6 6a3d
00000090: f389 773e 2eae 2b3e 1e70 8fbe 0257 a83e
000000a0: df83 43bd 5196 343e 67fe 2f3e 5cdf 393f
000000b0: 19cb 993f 070c 393e 2356 d33c a9a8 053f
000000c0: 81d7 bebd 65a4 6abd
-0.093155555 -0.21304217 -0.888979 -0.25400525 0.07021053 0.20117983 -0.13447745 0.030271124
0.07258262 0.0814416 -0.19785401 0.15113193 0.4032113 -0.3448365 0.13988057 0.39852515
-0.4838594 0.15249038 -0.19941448 0.19672956 -0.024618736 0.38235363 -0.3796012 -0.19989927
0.1957599 0.409709 -0.3016947 -0.03410957 -0.13164923 0.009136984 -0.39043874 0.27160656
0.19877858 0.11589498 0.13306528 0.057302505 0.24173717 0.16765663 -0.28015226 0.32878882
-0.047733184 0.17635466 0.1718689 0.72606444 1.2015105 0.18070994 0.02579791 0.5221048
-0.09318448 -0.057285685
